{"keras_version": "2.2.4", "config": {"layers": [{"inbound_nodes": [], "name": "input_1", "config": {"sparse": false, "dtype": "float32", "batch_input_shape": [null, 64, 64, 3], "name": "input_1"}, "class_name": "InputLayer"}, {"inbound_nodes": [[["input_1", 0, 0, {}]]], "name": "conv2d_5", "config": {"filters": 16, "kernel_size": [3, 3], "kernel_regularizer": null, "data_format": "channels_last", "activation": "linear", "trainable": true, "name": "conv2d_5", "kernel_initializer": {"config": {"seed": null, "scale": 1.0, "mode": "fan_avg", "distribution": "uniform"}, "class_name": "VarianceScaling"}, "bias_regularizer": null, "dilation_rate": [1, 1], "bias_constraint": null, "kernel_constraint": null, "bias_initializer": {"config": {}, "class_name": "Zeros"}, "strides": [1, 1], "activity_regularizer": null, "padding": "valid", "use_bias": true}, "class_name": "Conv2D"}, {"inbound_nodes": [[["input_1", 0, 0, {}]]], "name": "conv2d_1", "config": {"filters": 32, "kernel_size": [3, 3], "kernel_regularizer": null, "data_format": "channels_last", "activation": "linear", "trainable": true, "name": "conv2d_1", "kernel_initializer": {"config": {"seed": null, "scale": 1.0, "mode": "fan_avg", "distribution": "uniform"}, "class_name": "VarianceScaling"}, "bias_regularizer": null, "dilation_rate": [1, 1], "bias_constraint": null, "kernel_constraint": null, "bias_initializer": {"config": {}, "class_name": "Zeros"}, "strides": [1, 1], "activity_regularizer": null, "padding": "valid", "use_bias": true}, "class_name": "Conv2D"}, {"inbound_nodes": [[["conv2d_5", 0, 0, {}]]], "name": "batch_normalization_5", "config": {"axis": -1, "gamma_constraint": null, "trainable": true, "momentum": 0.99, "moving_variance_initializer": {"config": {}, "class_name": "Ones"}, "beta_regularizer": null, "gamma_regularizer": null, "beta_initializer": {"config": {}, "class_name": "Zeros"}, "name": "batch_normalization_5", "center": true, "moving_mean_initializer": {"config": {}, "class_name": "Zeros"}, "epsilon": 0.001, "beta_constraint": null, "gamma_initializer": {"config": {}, "class_name": "Ones"}, "scale": true}, "class_name": "BatchNormalization"}, {"inbound_nodes": [[["conv2d_1", 0, 0, {}]]], "name": "batch_normalization_1", "config": {"axis": -1, "gamma_constraint": null, "trainable": true, "momentum": 0.99, "moving_variance_initializer": {"config": {}, "class_name": "Ones"}, "beta_regularizer": null, "gamma_regularizer": null, "beta_initializer": {"config": {}, "class_name": "Zeros"}, "name": "batch_normalization_1", "center": true, "moving_mean_initializer": {"config": {}, "class_name": "Zeros"}, "epsilon": 0.001, "beta_constraint": null, "gamma_initializer": {"config": {}, "class_name": "Ones"}, "scale": true}, "class_name": "BatchNormalization"}, {"inbound_nodes": [[["batch_normalization_5", 0, 0, {}]]], "name": "activation_5", "config": {"activation": "tanh", "trainable": true, "name": "activation_5"}, "class_name": "Activation"}, {"inbound_nodes": [[["batch_normalization_1", 0, 0, {}]]], "name": "activation_1", "config": {"activation": "relu", "trainable": true, "name": "activation_1"}, "class_name": "Activation"}, {"inbound_nodes": [[["activation_5", 0, 0, {}]]], "name": "max_pooling2d_1", "config": {"data_format": "channels_last", "name": "max_pooling2d_1", "trainable": true, "padding": "valid", "strides": [2, 2], "pool_size": [2, 2]}, "class_name": "MaxPooling2D"}, {"inbound_nodes": [[["activation_1", 0, 0, {}]]], "name": "average_pooling2d_1", "config": {"data_format": "channels_last", "name": "average_pooling2d_1", "trainable": true, "padding": "valid", "strides": [2, 2], "pool_size": [2, 2]}, "class_name": "AveragePooling2D"}, {"inbound_nodes": [[["max_pooling2d_1", 0, 0, {}]]], "name": "conv2d_6", "config": {"filters": 16, "kernel_size": [3, 3], "kernel_regularizer": null, "data_format": "channels_last", "activation": "linear", "trainable": true, "name": "conv2d_6", "kernel_initializer": {"config": {"seed": null, "scale": 1.0, "mode": "fan_avg", "distribution": "uniform"}, "class_name": "VarianceScaling"}, "bias_regularizer": null, "dilation_rate": [1, 1], "bias_constraint": null, "kernel_constraint": null, "bias_initializer": {"config": {}, "class_name": "Zeros"}, "strides": [1, 1], "activity_regularizer": null, "padding": "valid", "use_bias": true}, "class_name": "Conv2D"}, {"inbound_nodes": [[["average_pooling2d_1", 0, 0, {}]]], "name": "conv2d_2", "config": {"filters": 32, "kernel_size": [3, 3], "kernel_regularizer": null, "data_format": "channels_last", "activation": "linear", "trainable": true, "name": "conv2d_2", "kernel_initializer": {"config": {"seed": null, "scale": 1.0, "mode": "fan_avg", "distribution": "uniform"}, "class_name": "VarianceScaling"}, "bias_regularizer": null, "dilation_rate": [1, 1], "bias_constraint": null, "kernel_constraint": null, "bias_initializer": {"config": {}, "class_name": "Zeros"}, "strides": [1, 1], "activity_regularizer": null, "padding": "valid", "use_bias": true}, "class_name": "Conv2D"}, {"inbound_nodes": [[["conv2d_6", 0, 0, {}]]], "name": "batch_normalization_6", "config": {"axis": -1, "gamma_constraint": null, "trainable": true, "momentum": 0.99, "moving_variance_initializer": {"config": {}, "class_name": "Ones"}, "beta_regularizer": null, "gamma_regularizer": null, "beta_initializer": {"config": {}, "class_name": "Zeros"}, "name": "batch_normalization_6", "center": true, "moving_mean_initializer": {"config": {}, "class_name": "Zeros"}, "epsilon": 0.001, "beta_constraint": null, "gamma_initializer": {"config": {}, "class_name": "Ones"}, "scale": true}, "class_name": "BatchNormalization"}, {"inbound_nodes": [[["conv2d_2", 0, 0, {}]]], "name": "batch_normalization_2", "config": {"axis": -1, "gamma_constraint": null, "trainable": true, "momentum": 0.99, "moving_variance_initializer": {"config": {}, "class_name": "Ones"}, "beta_regularizer": null, "gamma_regularizer": null, "beta_initializer": {"config": {}, "class_name": "Zeros"}, "name": "batch_normalization_2", "center": true, "moving_mean_initializer": {"config": {}, "class_name": "Zeros"}, "epsilon": 0.001, "beta_constraint": null, "gamma_initializer": {"config": {}, "class_name": "Ones"}, "scale": true}, "class_name": "BatchNormalization"}, {"inbound_nodes": [[["batch_normalization_6", 0, 0, {}]]], "name": "activation_6", "config": {"activation": "tanh", "trainable": true, "name": "activation_6"}, "class_name": "Activation"}, {"inbound_nodes": [[["batch_normalization_2", 0, 0, {}]]], "name": "activation_2", "config": {"activation": "relu", "trainable": true, "name": "activation_2"}, "class_name": "Activation"}, {"inbound_nodes": [[["activation_6", 0, 0, {}]]], "name": "max_pooling2d_2", "config": {"data_format": "channels_last", "name": "max_pooling2d_2", "trainable": true, "padding": "valid", "strides": [2, 2], "pool_size": [2, 2]}, "class_name": "MaxPooling2D"}, {"inbound_nodes": [[["activation_2", 0, 0, {}]]], "name": "average_pooling2d_2", "config": {"data_format": "channels_last", "name": "average_pooling2d_2", "trainable": true, "padding": "valid", "strides": [2, 2], "pool_size": [2, 2]}, "class_name": "AveragePooling2D"}, {"inbound_nodes": [[["max_pooling2d_2", 0, 0, {}]]], "name": "conv2d_7", "config": {"filters": 16, "kernel_size": [3, 3], "kernel_regularizer": null, "data_format": "channels_last", "activation": "linear", "trainable": true, "name": "conv2d_7", "kernel_initializer": {"config": {"seed": null, "scale": 1.0, "mode": "fan_avg", "distribution": "uniform"}, "class_name": "VarianceScaling"}, "bias_regularizer": null, "dilation_rate": [1, 1], "bias_constraint": null, "kernel_constraint": null, "bias_initializer": {"config": {}, "class_name": "Zeros"}, "strides": [1, 1], "activity_regularizer": null, "padding": "valid", "use_bias": true}, "class_name": "Conv2D"}, {"inbound_nodes": [[["average_pooling2d_2", 0, 0, {}]]], "name": "conv2d_3", "config": {"filters": 32, "kernel_size": [3, 3], "kernel_regularizer": null, "data_format": "channels_last", "activation": "linear", "trainable": true, "name": "conv2d_3", "kernel_initializer": {"config": {"seed": null, "scale": 1.0, "mode": "fan_avg", "distribution": "uniform"}, "class_name": "VarianceScaling"}, "bias_regularizer": null, "dilation_rate": [1, 1], "bias_constraint": null, "kernel_constraint": null, "bias_initializer": {"config": {}, "class_name": "Zeros"}, "strides": [1, 1], "activity_regularizer": null, "padding": "valid", "use_bias": true}, "class_name": "Conv2D"}, {"inbound_nodes": [[["conv2d_7", 0, 0, {}]]], "name": "batch_normalization_7", "config": {"axis": -1, "gamma_constraint": null, "trainable": true, "momentum": 0.99, "moving_variance_initializer": {"config": {}, "class_name": "Ones"}, "beta_regularizer": null, "gamma_regularizer": null, "beta_initializer": {"config": {}, "class_name": "Zeros"}, "name": "batch_normalization_7", "center": true, "moving_mean_initializer": {"config": {}, "class_name": "Zeros"}, "epsilon": 0.001, "beta_constraint": null, "gamma_initializer": {"config": {}, "class_name": "Ones"}, "scale": true}, "class_name": "BatchNormalization"}, {"inbound_nodes": [[["conv2d_3", 0, 0, {}]]], "name": "batch_normalization_3", "config": {"axis": -1, "gamma_constraint": null, "trainable": true, "momentum": 0.99, "moving_variance_initializer": {"config": {}, "class_name": "Ones"}, "beta_regularizer": null, "gamma_regularizer": null, "beta_initializer": {"config": {}, "class_name": "Zeros"}, "name": "batch_normalization_3", "center": true, "moving_mean_initializer": {"config": {}, "class_name": "Zeros"}, "epsilon": 0.001, "beta_constraint": null, "gamma_initializer": {"config": {}, "class_name": "Ones"}, "scale": true}, "class_name": "BatchNormalization"}, {"inbound_nodes": [[["batch_normalization_7", 0, 0, {}]]], "name": "activation_7", "config": {"activation": "tanh", "trainable": true, "name": "activation_7"}, "class_name": "Activation"}, {"inbound_nodes": [[["batch_normalization_3", 0, 0, {}]]], "name": "activation_3", "config": {"activation": "relu", "trainable": true, "name": "activation_3"}, "class_name": "Activation"}, {"inbound_nodes": [[["activation_7", 0, 0, {}]]], "name": "max_pooling2d_3", "config": {"data_format": "channels_last", "name": "max_pooling2d_3", "trainable": true, "padding": "valid", "strides": [2, 2], "pool_size": [2, 2]}, "class_name": "MaxPooling2D"}, {"inbound_nodes": [[["activation_3", 0, 0, {}]]], "name": "average_pooling2d_3", "config": {"data_format": "channels_last", "name": "average_pooling2d_3", "trainable": true, "padding": "valid", "strides": [2, 2], "pool_size": [2, 2]}, "class_name": "AveragePooling2D"}, {"inbound_nodes": [[["max_pooling2d_3", 0, 0, {}]]], "name": "conv2d_8", "config": {"filters": 16, "kernel_size": [3, 3], "kernel_regularizer": null, "data_format": "channels_last", "activation": "linear", "trainable": true, "name": "conv2d_8", "kernel_initializer": {"config": {"seed": null, "scale": 1.0, "mode": "fan_avg", "distribution": "uniform"}, "class_name": "VarianceScaling"}, "bias_regularizer": null, "dilation_rate": [1, 1], "bias_constraint": null, "kernel_constraint": null, "bias_initializer": {"config": {}, "class_name": "Zeros"}, "strides": [1, 1], "activity_regularizer": null, "padding": "valid", "use_bias": true}, "class_name": "Conv2D"}, {"inbound_nodes": [[["average_pooling2d_3", 0, 0, {}]]], "name": "conv2d_4", "config": {"filters": 32, "kernel_size": [3, 3], "kernel_regularizer": null, "data_format": "channels_last", "activation": "linear", "trainable": true, "name": "conv2d_4", "kernel_initializer": {"config": {"seed": null, "scale": 1.0, "mode": "fan_avg", "distribution": "uniform"}, "class_name": "VarianceScaling"}, "bias_regularizer": null, "dilation_rate": [1, 1], "bias_constraint": null, "kernel_constraint": null, "bias_initializer": {"config": {}, "class_name": "Zeros"}, "strides": [1, 1], "activity_regularizer": null, "padding": "valid", "use_bias": true}, "class_name": "Conv2D"}, {"inbound_nodes": [[["conv2d_8", 0, 0, {}]]], "name": "batch_normalization_8", "config": {"axis": -1, "gamma_constraint": null, "trainable": true, "momentum": 0.99, "moving_variance_initializer": {"config": {}, "class_name": "Ones"}, "beta_regularizer": null, "gamma_regularizer": null, "beta_initializer": {"config": {}, "class_name": "Zeros"}, "name": "batch_normalization_8", "center": true, "moving_mean_initializer": {"config": {}, "class_name": "Zeros"}, "epsilon": 0.001, "beta_constraint": null, "gamma_initializer": {"config": {}, "class_name": "Ones"}, "scale": true}, "class_name": "BatchNormalization"}, {"inbound_nodes": [[["conv2d_4", 0, 0, {}]]], "name": "batch_normalization_4", "config": {"axis": -1, "gamma_constraint": null, "trainable": true, "momentum": 0.99, "moving_variance_initializer": {"config": {}, "class_name": "Ones"}, "beta_regularizer": null, "gamma_regularizer": null, "beta_initializer": {"config": {}, "class_name": "Zeros"}, "name": "batch_normalization_4", "center": true, "moving_mean_initializer": {"config": {}, "class_name": "Zeros"}, "epsilon": 0.001, "beta_constraint": null, "gamma_initializer": {"config": {}, "class_name": "Ones"}, "scale": true}, "class_name": "BatchNormalization"}, {"inbound_nodes": [[["batch_normalization_8", 0, 0, {}]]], "name": "activation_8", "config": {"activation": "tanh", "trainable": true, "name": "activation_8"}, "class_name": "Activation"}, {"inbound_nodes": [[["batch_normalization_4", 0, 0, {}]]], "name": "activation_4", "config": {"activation": "relu", "trainable": true, "name": "activation_4"}, "class_name": "Activation"}, {"inbound_nodes": [[["max_pooling2d_2", 0, 0, {}]]], "name": "conv2d_11", "config": {"filters": 10, "kernel_size": [1, 1], "kernel_regularizer": null, "data_format": "channels_last", "activation": "relu", "trainable": true, "name": "conv2d_11", "kernel_initializer": {"config": {"seed": null, "scale": 1.0, "mode": "fan_avg", "distribution": "uniform"}, "class_name": "VarianceScaling"}, "bias_regularizer": null, "dilation_rate": [1, 1], "bias_constraint": null, "kernel_constraint": null, "bias_initializer": {"config": {}, "class_name": "Zeros"}, "strides": [1, 1], "activity_regularizer": null, "padding": "valid", "use_bias": true}, "class_name": "Conv2D"}, {"inbound_nodes": [[["average_pooling2d_2", 0, 0, {}]]], "name": "conv2d_12", "config": {"filters": 10, "kernel_size": [1, 1], "kernel_regularizer": null, "data_format": "channels_last", "activation": "relu", "trainable": true, "name": "conv2d_12", "kernel_initializer": {"config": {"seed": null, "scale": 1.0, "mode": "fan_avg", "distribution": "uniform"}, "class_name": "VarianceScaling"}, "bias_regularizer": null, "dilation_rate": [1, 1], "bias_constraint": null, "kernel_constraint": null, "bias_initializer": {"config": {}, "class_name": "Zeros"}, "strides": [1, 1], "activity_regularizer": null, "padding": "valid", "use_bias": true}, "class_name": "Conv2D"}, {"inbound_nodes": [[["max_pooling2d_1", 0, 0, {}]]], "name": "conv2d_13", "config": {"filters": 10, "kernel_size": [1, 1], "kernel_regularizer": null, "data_format": "channels_last", "activation": "relu", "trainable": true, "name": "conv2d_13", "kernel_initializer": {"config": {"seed": null, "scale": 1.0, "mode": "fan_avg", "distribution": "uniform"}, "class_name": "VarianceScaling"}, "bias_regularizer": null, "dilation_rate": [1, 1], "bias_constraint": null, "kernel_constraint": null, "bias_initializer": {"config": {}, "class_name": "Zeros"}, "strides": [1, 1], "activity_regularizer": null, "padding": "valid", "use_bias": true}, "class_name": "Conv2D"}, {"inbound_nodes": [[["average_pooling2d_1", 0, 0, {}]]], "name": "conv2d_14", "config": {"filters": 10, "kernel_size": [1, 1], "kernel_regularizer": null, "data_format": "channels_last", "activation": "relu", "trainable": true, "name": "conv2d_14", "kernel_initializer": {"config": {"seed": null, "scale": 1.0, "mode": "fan_avg", "distribution": "uniform"}, "class_name": "VarianceScaling"}, "bias_regularizer": null, "dilation_rate": [1, 1], "bias_constraint": null, "kernel_constraint": null, "bias_initializer": {"config": {}, "class_name": "Zeros"}, "strides": [1, 1], "activity_regularizer": null, "padding": "valid", "use_bias": true}, "class_name": "Conv2D"}, {"inbound_nodes": [[["activation_8", 0, 0, {}]]], "name": "conv2d_9", "config": {"filters": 10, "kernel_size": [1, 1], "kernel_regularizer": null, "data_format": "channels_last", "activation": "relu", "trainable": true, "name": "conv2d_9", "kernel_initializer": {"config": {"seed": null, "scale": 1.0, "mode": "fan_avg", "distribution": "uniform"}, "class_name": "VarianceScaling"}, "bias_regularizer": null, "dilation_rate": [1, 1], "bias_constraint": null, "kernel_constraint": null, "bias_initializer": {"config": {}, "class_name": "Zeros"}, "strides": [1, 1], "activity_regularizer": null, "padding": "valid", "use_bias": true}, "class_name": "Conv2D"}, {"inbound_nodes": [[["activation_4", 0, 0, {}]]], "name": "conv2d_10", "config": {"filters": 10, "kernel_size": [1, 1], "kernel_regularizer": null, "data_format": "channels_last", "activation": "relu", "trainable": true, "name": "conv2d_10", "kernel_initializer": {"config": {"seed": null, "scale": 1.0, "mode": "fan_avg", "distribution": "uniform"}, "class_name": "VarianceScaling"}, "bias_regularizer": null, "dilation_rate": [1, 1], "bias_constraint": null, "kernel_constraint": null, "bias_initializer": {"config": {}, "class_name": "Zeros"}, "strides": [1, 1], "activity_regularizer": null, "padding": "valid", "use_bias": true}, "class_name": "Conv2D"}, {"inbound_nodes": [[["conv2d_11", 0, 0, {}]]], "name": "max_pooling2d_4", "config": {"data_format": "channels_last", "name": "max_pooling2d_4", "trainable": true, "padding": "valid", "strides": [4, 4], "pool_size": [4, 4]}, "class_name": "MaxPooling2D"}, {"inbound_nodes": [[["conv2d_12", 0, 0, {}]]], "name": "average_pooling2d_4", "config": {"data_format": "channels_last", "name": "average_pooling2d_4", "trainable": true, "padding": "valid", "strides": [4, 4], "pool_size": [4, 4]}, "class_name": "AveragePooling2D"}, {"inbound_nodes": [[["conv2d_13", 0, 0, {}]]], "name": "max_pooling2d_5", "config": {"data_format": "channels_last", "name": "max_pooling2d_5", "trainable": true, "padding": "valid", "strides": [8, 8], "pool_size": [8, 8]}, "class_name": "MaxPooling2D"}, {"inbound_nodes": [[["conv2d_14", 0, 0, {}]]], "name": "average_pooling2d_5", "config": {"data_format": "channels_last", "name": "average_pooling2d_5", "trainable": true, "padding": "valid", "strides": [8, 8], "pool_size": [8, 8]}, "class_name": "AveragePooling2D"}, {"inbound_nodes": [[["conv2d_9", 0, 0, {}]]], "name": "flatten_1", "config": {"trainable": true, "name": "flatten_1", "data_format": "channels_last"}, "class_name": "Flatten"}, {"inbound_nodes": [[["conv2d_10", 0, 0, {}]]], "name": "flatten_2", "config": {"trainable": true, "name": "flatten_2", "data_format": "channels_last"}, "class_name": "Flatten"}, {"inbound_nodes": [[["max_pooling2d_4", 0, 0, {}]]], "name": "flatten_3", "config": {"trainable": true, "name": "flatten_3", "data_format": "channels_last"}, "class_name": "Flatten"}, {"inbound_nodes": [[["average_pooling2d_4", 0, 0, {}]]], "name": "flatten_4", "config": {"trainable": true, "name": "flatten_4", "data_format": "channels_last"}, "class_name": "Flatten"}, {"inbound_nodes": [[["max_pooling2d_5", 0, 0, {}]]], "name": "flatten_5", "config": {"trainable": true, "name": "flatten_5", "data_format": "channels_last"}, "class_name": "Flatten"}, {"inbound_nodes": [[["average_pooling2d_5", 0, 0, {}]]], "name": "flatten_6", "config": {"trainable": true, "name": "flatten_6", "data_format": "channels_last"}, "class_name": "Flatten"}, {"inbound_nodes": [[["flatten_1", 0, 0, {}]]], "name": "dropout_1", "config": {"trainable": true, "seed": null, "name": "dropout_1", "rate": 0.2, "noise_shape": null}, "class_name": "Dropout"}, {"inbound_nodes": [[["flatten_2", 0, 0, {}]]], "name": "dropout_2", "config": {"trainable": true, "seed": null, "name": "dropout_2", "rate": 0.2, "noise_shape": null}, "class_name": "Dropout"}, {"inbound_nodes": [[["flatten_3", 0, 0, {}]]], "name": "dropout_3", "config": {"trainable": true, "seed": null, "name": "dropout_3", "rate": 0.2, "noise_shape": null}, "class_name": "Dropout"}, {"inbound_nodes": [[["flatten_4", 0, 0, {}]]], "name": "dropout_4", "config": {"trainable": true, "seed": null, "name": "dropout_4", "rate": 0.2, "noise_shape": null}, "class_name": "Dropout"}, {"inbound_nodes": [[["flatten_5", 0, 0, {}]]], "name": "dropout_5", "config": {"trainable": true, "seed": null, "name": "dropout_5", "rate": 0.2, "noise_shape": null}, "class_name": "Dropout"}, {"inbound_nodes": [[["flatten_6", 0, 0, {}]]], "name": "dropout_6", "config": {"trainable": true, "seed": null, "name": "dropout_6", "rate": 0.2, "noise_shape": null}, "class_name": "Dropout"}, {"inbound_nodes": [[["dropout_1", 0, 0, {}]]], "name": "dense_1", "config": {"kernel_regularizer": null, "kernel_constraint": null, "bias_regularizer": null, "trainable": true, "name": "dense_1", "kernel_initializer": {"config": {"seed": null, "scale": 1.0, "mode": "fan_avg", "distribution": "uniform"}, "class_name": "VarianceScaling"}, "bias_constraint": null, "activation": "relu", "units": 3, "bias_initializer": {"config": {}, "class_name": "Zeros"}, "activity_regularizer": null, "use_bias": true}, "class_name": "Dense"}, {"inbound_nodes": [[["dropout_2", 0, 0, {}]]], "name": "dense_2", "config": {"kernel_regularizer": null, "kernel_constraint": null, "bias_regularizer": null, "trainable": true, "name": "dense_2", "kernel_initializer": {"config": {"seed": null, "scale": 1.0, "mode": "fan_avg", "distribution": "uniform"}, "class_name": "VarianceScaling"}, "bias_constraint": null, "activation": "relu", "units": 3, "bias_initializer": {"config": {}, "class_name": "Zeros"}, "activity_regularizer": null, "use_bias": true}, "class_name": "Dense"}, {"inbound_nodes": [[["dropout_3", 0, 0, {}]]], "name": "dense_4", "config": {"kernel_regularizer": null, "kernel_constraint": null, "bias_regularizer": null, "trainable": true, "name": "dense_4", "kernel_initializer": {"config": {"seed": null, "scale": 1.0, "mode": "fan_avg", "distribution": "uniform"}, "class_name": "VarianceScaling"}, "bias_constraint": null, "activation": "relu", "units": 3, "bias_initializer": {"config": {}, "class_name": "Zeros"}, "activity_regularizer": null, "use_bias": true}, "class_name": "Dense"}, {"inbound_nodes": [[["dropout_4", 0, 0, {}]]], "name": "dense_5", "config": {"kernel_regularizer": null, "kernel_constraint": null, "bias_regularizer": null, "trainable": true, "name": "dense_5", "kernel_initializer": {"config": {"seed": null, "scale": 1.0, "mode": "fan_avg", "distribution": "uniform"}, "class_name": "VarianceScaling"}, "bias_constraint": null, "activation": "relu", "units": 3, "bias_initializer": {"config": {}, "class_name": "Zeros"}, "activity_regularizer": null, "use_bias": true}, "class_name": "Dense"}, {"inbound_nodes": [[["dropout_5", 0, 0, {}]]], "name": "dense_7", "config": {"kernel_regularizer": null, "kernel_constraint": null, "bias_regularizer": null, "trainable": true, "name": "dense_7", "kernel_initializer": {"config": {"seed": null, "scale": 1.0, "mode": "fan_avg", "distribution": "uniform"}, "class_name": "VarianceScaling"}, "bias_constraint": null, "activation": "relu", "units": 3, "bias_initializer": {"config": {}, "class_name": "Zeros"}, "activity_regularizer": null, "use_bias": true}, "class_name": "Dense"}, {"inbound_nodes": [[["dropout_6", 0, 0, {}]]], "name": "dense_8", "config": {"kernel_regularizer": null, "kernel_constraint": null, "bias_regularizer": null, "trainable": true, "name": "dense_8", "kernel_initializer": {"config": {"seed": null, "scale": 1.0, "mode": "fan_avg", "distribution": "uniform"}, "class_name": "VarianceScaling"}, "bias_constraint": null, "activation": "relu", "units": 3, "bias_initializer": {"config": {}, "class_name": "Zeros"}, "activity_regularizer": null, "use_bias": true}, "class_name": "Dense"}, {"inbound_nodes": [[["dense_1", 0, 0, {}], ["dense_2", 0, 0, {}]]], "name": "multiply_2", "config": {"trainable": true, "name": "multiply_2"}, "class_name": "Multiply"}, {"inbound_nodes": [[["dense_4", 0, 0, {}], ["dense_5", 0, 0, {}]]], "name": "multiply_4", "config": {"trainable": true, "name": "multiply_4"}, "class_name": "Multiply"}, {"inbound_nodes": [[["dense_7", 0, 0, {}], ["dense_8", 0, 0, {}]]], "name": "multiply_6", "config": {"trainable": true, "name": "multiply_6"}, "class_name": "Multiply"}, {"inbound_nodes": [[["multiply_2", 0, 0, {}]]], "name": "dense_3", "config": {"kernel_regularizer": null, "kernel_constraint": null, "bias_regularizer": null, "trainable": true, "name": "dense_3", "kernel_initializer": {"config": {"seed": null, "scale": 1.0, "mode": "fan_avg", "distribution": "uniform"}, "class_name": "VarianceScaling"}, "bias_constraint": null, "activation": "relu", "units": 6, "bias_initializer": {"config": {}, "class_name": "Zeros"}, "activity_regularizer": null, "use_bias": true}, "class_name": "Dense"}, {"inbound_nodes": [[["multiply_4", 0, 0, {}]]], "name": "dense_6", "config": {"kernel_regularizer": null, "kernel_constraint": null, "bias_regularizer": null, "trainable": true, "name": "dense_6", "kernel_initializer": {"config": {"seed": null, "scale": 1.0, "mode": "fan_avg", "distribution": "uniform"}, "class_name": "VarianceScaling"}, "bias_constraint": null, "activation": "relu", "units": 6, "bias_initializer": {"config": {}, "class_name": "Zeros"}, "activity_regularizer": null, "use_bias": true}, "class_name": "Dense"}, {"inbound_nodes": [[["multiply_6", 0, 0, {}]]], "name": "dense_9", "config": {"kernel_regularizer": null, "kernel_constraint": null, "bias_regularizer": null, "trainable": true, "name": "dense_9", "kernel_initializer": {"config": {"seed": null, "scale": 1.0, "mode": "fan_avg", "distribution": "uniform"}, "class_name": "VarianceScaling"}, "bias_constraint": null, "activation": "relu", "units": 6, "bias_initializer": {"config": {}, "class_name": "Zeros"}, "activity_regularizer": null, "use_bias": true}, "class_name": "Dense"}, {"inbound_nodes": [[["flatten_1", 0, 0, {}], ["flatten_2", 0, 0, {}]]], "name": "multiply_1", "config": {"trainable": true, "name": "multiply_1"}, "class_name": "Multiply"}, {"inbound_nodes": [[["flatten_3", 0, 0, {}], ["flatten_4", 0, 0, {}]]], "name": "multiply_3", "config": {"trainable": true, "name": "multiply_3"}, "class_name": "Multiply"}, {"inbound_nodes": [[["flatten_5", 0, 0, {}], ["flatten_6", 0, 0, {}]]], "name": "multiply_5", "config": {"trainable": true, "name": "multiply_5"}, "class_name": "Multiply"}, {"inbound_nodes": [[["dense_3", 0, 0, {}]]], "name": "pred_stage1", "config": {"kernel_regularizer": null, "kernel_constraint": null, "bias_regularizer": null, "trainable": true, "name": "pred_stage1", "kernel_initializer": {"config": {"seed": null, "scale": 1.0, "mode": "fan_avg", "distribution": "uniform"}, "class_name": "VarianceScaling"}, "bias_constraint": null, "activation": "relu", "units": 3, "bias_initializer": {"config": {}, "class_name": "Zeros"}, "activity_regularizer": null, "use_bias": true}, "class_name": "Dense"}, {"inbound_nodes": [[["dense_6", 0, 0, {}]]], "name": "pred_stage2", "config": {"kernel_regularizer": null, "kernel_constraint": null, "bias_regularizer": null, "trainable": true, "name": "pred_stage2", "kernel_initializer": {"config": {"seed": null, "scale": 1.0, "mode": "fan_avg", "distribution": "uniform"}, "class_name": "VarianceScaling"}, "bias_constraint": null, "activation": "relu", "units": 3, "bias_initializer": {"config": {}, "class_name": "Zeros"}, "activity_regularizer": null, "use_bias": true}, "class_name": "Dense"}, {"inbound_nodes": [[["dense_9", 0, 0, {}]]], "name": "pred_stage3", "config": {"kernel_regularizer": null, "kernel_constraint": null, "bias_regularizer": null, "trainable": true, "name": "pred_stage3", "kernel_initializer": {"config": {"seed": null, "scale": 1.0, "mode": "fan_avg", "distribution": "uniform"}, "class_name": "VarianceScaling"}, "bias_constraint": null, "activation": "relu", "units": 3, "bias_initializer": {"config": {}, "class_name": "Zeros"}, "activity_regularizer": null, "use_bias": true}, "class_name": "Dense"}, {"inbound_nodes": [[["multiply_1", 0, 0, {}]]], "name": "delta_s1", "config": {"kernel_regularizer": null, "kernel_constraint": null, "bias_regularizer": null, "trainable": true, "name": "delta_s1", "kernel_initializer": {"config": {"seed": null, "scale": 1.0, "mode": "fan_avg", "distribution": "uniform"}, "class_name": "VarianceScaling"}, "bias_constraint": null, "activation": "tanh", "units": 1, "bias_initializer": {"config": {}, "class_name": "Zeros"}, "activity_regularizer": null, "use_bias": true}, "class_name": "Dense"}, {"inbound_nodes": [[["multiply_3", 0, 0, {}]]], "name": "delta_s2", "config": {"kernel_regularizer": null, "kernel_constraint": null, "bias_regularizer": null, "trainable": true, "name": "delta_s2", "kernel_initializer": {"config": {"seed": null, "scale": 1.0, "mode": "fan_avg", "distribution": "uniform"}, "class_name": "VarianceScaling"}, "bias_constraint": null, "activation": "tanh", "units": 1, "bias_initializer": {"config": {}, "class_name": "Zeros"}, "activity_regularizer": null, "use_bias": true}, "class_name": "Dense"}, {"inbound_nodes": [[["multiply_5", 0, 0, {}]]], "name": "delta_s3", "config": {"kernel_regularizer": null, "kernel_constraint": null, "bias_regularizer": null, "trainable": true, "name": "delta_s3", "kernel_initializer": {"config": {"seed": null, "scale": 1.0, "mode": "fan_avg", "distribution": "uniform"}, "class_name": "VarianceScaling"}, "bias_constraint": null, "activation": "tanh", "units": 1, "bias_initializer": {"config": {}, "class_name": "Zeros"}, "activity_regularizer": null, "use_bias": true}, "class_name": "Dense"}, {"inbound_nodes": [[["dense_3", 0, 0, {}]]], "name": "local_delta_stage1", "config": {"kernel_regularizer": null, "kernel_constraint": null, "bias_regularizer": null, "trainable": true, "name": "local_delta_stage1", "kernel_initializer": {"config": {"seed": null, "scale": 1.0, "mode": "fan_avg", "distribution": "uniform"}, "class_name": "VarianceScaling"}, "bias_constraint": null, "activation": "tanh", "units": 3, "bias_initializer": {"config": {}, "class_name": "Zeros"}, "activity_regularizer": null, "use_bias": true}, "class_name": "Dense"}, {"inbound_nodes": [[["dense_6", 0, 0, {}]]], "name": "local_delta_stage2", "config": {"kernel_regularizer": null, "kernel_constraint": null, "bias_regularizer": null, "trainable": true, "name": "local_delta_stage2", "kernel_initializer": {"config": {"seed": null, "scale": 1.0, "mode": "fan_avg", "distribution": "uniform"}, "class_name": "VarianceScaling"}, "bias_constraint": null, "activation": "tanh", "units": 3, "bias_initializer": {"config": {}, "class_name": "Zeros"}, "activity_regularizer": null, "use_bias": true}, "class_name": "Dense"}, {"inbound_nodes": [[["dense_9", 0, 0, {}]]], "name": "local_delta_stage3", "config": {"kernel_regularizer": null, "kernel_constraint": null, "bias_regularizer": null, "trainable": true, "name": "local_delta_stage3", "kernel_initializer": {"config": {"seed": null, "scale": 1.0, "mode": "fan_avg", "distribution": "uniform"}, "class_name": "VarianceScaling"}, "bias_constraint": null, "activation": "tanh", "units": 3, "bias_initializer": {"config": {}, "class_name": "Zeros"}, "activity_regularizer": null, "use_bias": true}, "class_name": "Dense"}, {"inbound_nodes": [[["pred_stage1", 0, 0, {}], ["pred_stage2", 0, 0, {}], ["pred_stage3", 0, 0, {}], ["delta_s1", 0, 0, {}], ["delta_s2", 0, 0, {}], ["delta_s3", 0, 0, {}], ["local_delta_stage1", 0, 0, {}], ["local_delta_stage2", 0, 0, {}], ["local_delta_stage3", 0, 0, {}]]], "name": "pred", "config": {"function": ["4wYAAAAAAAAADgAAAAcAAABTAAAAcz4CAAB8AABkAQAZZAAAZAAAhQIAZAEAZgIAGWQBABR9BgB8\nAABkAQAZZAAAZAAAhQIAZAEAZgIAGWQBABR9BwB8AABkAQAZZAAAZAAAhQIAZAEAZgIAGWQBABR9\nCABkAgB9CQB4VQB0AABkAQB8AQCDAgBEXUQAfQoAfAYAfAoAfAQAfAAAZAMAGWQAAGQAAIUCAHwK\nAGYCABkUF3wAAGQBABlkAABkAACFAgB8CgBmAgAZFBd9BgBxcABXdAEAagIAfAYAZAoAgwIAfQYA\nfAYAfAEAZAIAfAUAfAAAZAQAGRQXFBt9BgB4VQB0AABkAQB8AgCDAgBEXUQAfQsAfAcAfAsAfAQA\nfAAAZAUAGWQAAGQAAIUCAHwLAGYCABkUF3wAAGQCABlkAABkAACFAgB8CwBmAgAZFBd9BwBx9ABX\ndAEAagIAfAcAZAsAgwIAfQcAfAcAfAEAZAIAfAUAfAAAZAQAGRQXFBt8AgBkAgB8BQB8AABkBgAZ\nFBcUG30HAHhVAHQAAGQBAHwDAIMCAERdRAB9DAB8CAB8DAB8BAB8AABkBwAZZAAAZAAAhQIAfAwA\nZgIAGRQXfAAAZAgAGWQAAGQAAIUCAHwMAGYCABkUF30IAHGMAVd0AQBqAgB8CABkDACDAgB9CAB8\nCAB8AQBkAgB8BQB8AABkBAAZFBcUG3wCAGQCAHwFAHwAAGQGABkUFxQbfAMAZAIAfAUAfAAAZAkA\nGRQXFBt9CAB8BgB8BwAXfAgAF3wJABR9DQB8DQBTKQ1O6QAAAADpAQAAAOkGAAAA6QMAAADpBwAA\nAOkEAAAA6QgAAADpAgAAAOkFAAAA6f////9yCgAAAHIKAAAAKQPaBXJhbmdl2gFL2gtleHBhbmRf\nZGltcykO2gF42gJzMdoCczLaAnMz2gxsYW1iZGFfbG9jYWzaCGxhbWJkYV9k2gFh2gFi2gFj2gFW\n2gFp2gFq2gFr2gNvdXSpAHIcAAAA+lIvaG9tZS9sYWIvUmVlZC9ETC9hZ2UtZXN0aW1hdGlvbi9j\nb2RlL1NTUi1OZXQvdHJhaW5pbmdfYW5kX3Rlc3RpbmcvU1NSTkVUX21vZGVsLnB52gpTU1JfbW9k\ndWxlJwEAAHMkAAAAAAEeAR4BHgEGAhYBQgESARoCFgFCARIBLgIWAUIBEgFCAxIB\n", null, null], "arguments": {"s2": 3, "s3": 3, "s1": 3, "lambda_local": 1, "lambda_d": 1}, "output_shape": null, "name": "pred", "output_shape_type": "raw", "trainable": true, "function_type": "lambda"}, "class_name": "Lambda"}], "input_layers": [["input_1", 0, 0]], "output_layers": [["pred", 0, 0]], "name": "model_1"}, "backend": "tensorflow", "class_name": "Model"}